Chatbot/chatbot/data.pth (torch, 6954 bytes, 6 tensors)

l1.weight f4 [8, 87]
00000000: d3a0 19bf 9535 f6be b368 16bf 578a 04bf
00000010: 1b93 03bf 8aab fabe 9b37 1ebf 2eed 06bf
00000020: d141 983e 4afa eabd 2d09 3fbe 4b11 ba3e
00000030: cec8 08be 9382 77be 4d5b 363e 419c c8be
00000040: f89e d7be 56fa bd3e c5b0 963d 9c2d db3e
00000050: e7a0 d6be abb4 bb3e 0193 14be 97bf 1bbf
00000060: 8792 023f b5c9 e0be 5c51 3ebe 74ed d43e
00000070: 404c 263e 280d 94be 9e05 13be 7f6e 5f3f
00000080: 3dda 763f 0842 093f 95b1 46be bc7b c5bc
00000090: 7520 f93e cbb2 23bf 5b1d 043f 1b4f a63e
000000a0: fd00 b33d c073 293f 7904 053f 31e8 be3e
000000b0: a2c0 97be 1175 ffbe d62f 2d3e 2b1a 833e
000000c0: 1440 85be 8f47 edbe 4dc4 573d f64f 4abe
000000d0: 7499 aabe 77e7 be3e 28b5 32be 0d30 55bc
000000e0: 5c4c abbe 0c27 afbe 7970 ff3e d698 7a3d
000000f0: 470c c4be b66a d6be 9501 acbe 9627 8fbe
00000100: 0945 d6be d409 1c3f 9826 2ebe aae9 64be
00000110: a4d1 093f c739 8e3e ea08 abbe e103 b23e
00000120: d0c8 153f 0052 8e3e 4804 dd3a ba26 153f
00000130: 338d 133e 12c9 b4be 3082 01bf e113 8c3e
00000140: 1148 433d 1876 8bbe 7a4f db3e 512a e1be
00000150: a9c6 b6be 1008 35be 5424 acbe 2d81 abbe
00000160: 885d aebe d5cd acbe 1891 abbe 1475 adbe
00000170: 546b acbe 0e1d acbe ca1a acbe 3a60 a43e
00000180: bb62 20be 8f7d 8e3d 24e4 f63e 055d 2bbe
00000190: 9e9b 81bd e429 153c b592 9bbe 5995 d3bd
000001a0: db39 4b3e 4773 d33e a5b8 813e b661 7fbe
000001b0: 781e df3e 3fae eabd ccfe 75be 8003 0c3b
000001c0: ae74 83be f494 30be 7401 8e3c 9961 a83e
000001d0: 9d6d b2bd 0141 14be 3290 8e3e b9e3 833e
000001e0: dbd4 613f 3608 ffbd 6282 2bbd c038 37bd
000001f0: 0931 a73d 8b9e 883e 91cb 933e 75c7 ae3e
00000200: 6672 e93e 2e18 023f 1071 b13e c651 99be
00000210: f913 bfbe 6d7a cb3d 6451 453e 3fb0 97be
00000220: 3907 48be 9f22 de3d 4ed8 9dbd 61d6 7bbe
00000230: 21c3 af3e 98e4 3cbe 234c 06be 4c69 953d
00000240: 954c b5be 524d fa3e 4084 6a3c 252e 50be
00000250: 5047 14be ff36 a0be db22 5dbe 4f3d 9abe
00000260: 1b1e d93e 453e eabd aff7 d6bd f53e fc3e
00000270: 4d35 8d3e 1a36 0cbd 176b 1b3d 3cd0 fc3e
00000280: 270e 2dbf f651 3c3d 8825 e23e 1b54 ba3e
00000290: c2e5 86be 538d 06be fbb6 86bd 337f 92be
000002a0: e61c 2abe 198a 063e 9660 a2bd 8741 62bd
000002b0: 746c 78be 0895 55be 633a 77be 8ebe c2be
000002c0: 8d40 61be 6123 5cbe 328d aebe 631b 8cbe
000002d0: 62f8 7dbe 054a a4be 4632 3a3e 8619 d1bd
000002e0: d7d8 2cbe e58e 113e c775 0abe 751a bf3d
000002f0: 785d ae3e 61ee 9cbe 0016 05be 260b af3e
00000300: d7a4 11bd e59d f83e 335d 203f fbf3 1b3f
00000310: b5d2 e83e bcca c1be 383e c33e eef6 68be
00000320: 5577 1bbe f194 d03e f689 abbc 40a5 bcbd
00000330: 7095 b7bd 5176 4b3f 1052 603f dcb5 acbd
00000340: ac48 e5bd e8ca 473c 3dee 5f3e 6e78 31bf
00000350: 1af7 c33e d6a7 953d b3eb d4bd 0173 a03e
00000360: b2d5 f83e d41c b23d 42d9 31be ec5d 703f
00000370: 8b77 823e d07e d33e 867e 173f ea28 2a3f
00000380: 5d8c 263e a2c4 4bbe 942d 4abe 975c a13e
00000390: 0482 3fbe de7e be3d 342b c3bb 5669 82be
000003a0: 2024 cb3e 3810 00be fc38 5cbe 99ab 213f
000003b0: d273 54be 3b32 16be 0fd5 9ebe 42fe d53e
000003c0: f860 33be 5c04 92be c447 cc3e be02 ac3d
000003d0: 366b 3cbe 5d5d 273e 3944 e03e 1fff 173f
000003e0: 9da5 febd ef80 a53e fa4d 04be e74c 9dbe
000003f0: e5e0 7ebe 6c80 303e 1785 cf3e 3099 9ebe
-0.60011023 -0.48087755 -0.5875351 -0.5177359 -0.5139634 -0.48959 -0.618036 -0.5270566
0.29737714 -0.1147352 -0.18655844 0.36341318 -0.13357851 -0.24170904 0.17808266 -0.39181712
-0.4211347 0.37105054 0.07357935 0.42808235 -0.41919634 0.36661276 -0.14509203 -0.6083922
0.51004833 -0.4390389 -0.18585724 0.41587412 0.16240025 -0.28916287 -0.14357612 0.8727798
0.96426755 0.5361638 -0.1940368 -0.024106853 0.48657575 -0.6394469 0.5160729 0.32482228
0.08740423 0.66192245 0.5195995 0.37286523 -0.29639155 -0.49894002 0.16912779 0.25605902
-0.2602545 -0.46343657 0.05267744 -0.19757065 -0.333202 0.3728597 -0.17451918 -0.0130119445
-0.33456695 -0.34209478 0.49890497 0.061180912 -0.38290617 -0.4187829 -0.33594957 -0.2795989
-0.41849545 0.60952497 -0.1700691 -0.22354761 0.5383551 0.27778456 -0.33405238 0.34768584
0.5850954 0.27796936 0.0016862238 0.5826222 0.14409332 -0.35309654 -0.50589275 0.27358916
0.04767615 -0.27238536 0.42834073 -0.43977597 -0.3569844 -0.17678857 -0.33621466 -0.3349699
-0.34055734 -0.33750787 -0.33509135 -0.33878386 -0.33675635 -0.33615917 -0.33614188 0.32104665
-0.15662663 0.06957542 0.48220932 -0.16734703 -0.0632851 0.009104226 -0.30385366 -0.1033122
0.19846289 0.41298887 0.25336185 -0.24939618 0.43577933 -0.11459016 -0.24022979 0.002136439
-0.25674957 -0.17244321 0.017334677 0.3288696 -0.08712313 -0.14477922 0.27844387 0.25759676
0.88215417 -0.12452738 -0.04187239 -0.044731855 0.081636496 0.2668346 0.28866246 0.3413655
0.45595092 0.50818145 0.34656572 -0.299452 -0.37319925 0.0993546 0.1926933 -0.29626653
-0.19534005 0.10846447 -0.077072725 -0.24593498 0.3432856 -0.18446577 -0.13114981 0.072954744
-0.3540999 0.48887116 0.014313757 -0.20330103 -0.14480329 -0.3129196 -0.21595328 -0.301249
0.4240578 -0.11437658 -0.10496461 0.49266782 0.27579728 -0.034231283 0.037943926 0.4937762
-0.6759972 0.0459766 0.4416926 0.36392292 -0.26347166 -0.13139848 -0.065778695 -0.2861267
-0.16612586 0.13138618 -0.079285786 -0.055238273 -0.24260122 -0.20857632 -0.24143367 -0.38036007
-0.2199728 -0.21497871 -0.34092098 -0.27364644 -0.24801782 -0.32087722 0.1818324 -0.10209946
-0.16879593 0.14214666 -0.13521491 0.09331218 0.34055686 -0.3065062 -0.12996674 0.34188193
-0.035557594 0.48557964 0.6264221 0.6091916 0.45473257 -0.37849987 0.38133407 -0.22750446
-0.1518224 0.40738633 -0.020939808 -0.092112064 -0.0896405 0.7947741 0.8762522 -0.084331244
-0.11195502 0.012194373 0.21868224 -0.69324386 0.3827446 0.07307403 -0.103965186 0.3133774
0.48600537 0.08696905 -0.17368034 0.93893313 0.2548183 0.41307688 0.59177434 0.6646868
0.16264482 -0.19899228 -0.19743949 0.31515953 -0.18701941 0.09301542 -0.005956078 -0.2547099
0.39676 -0.12506187 -0.21506113 0.6315246 -0.20747307 -0.14667599 -0.31021926 0.41795546
-0.1751746 -0.2851895 0.39898503 0.083989605 -0.18400273 0.16344209 0.4380205 0.5937366
-0.12433932 0.3232493 -0.1292037 -0.30722734 -0.24890478 0.17236489 0.40531227 -0.30976248

l1.bias f4 [8]
00000000: 6b11 f63e a0cf 933e 4ac0 ad3e 3416 0a3f
00000010: 41d2 123f a8ac 233f c2a8 043f 1878 b23e
0.48060164 0.28869343 0.33935767 0.5394013 0.5735207 0.6393533 0.51820004 0.3485725

l2.weight f4 [8, 8]
00000000: af64 f1be 031d 71bf 4dff 85be c565 81be
00000010: c565 903f 536e 4c3f 8b59 48bf 8ca6 a83c
00000020: 60cb 3d3e a971 4ebf 9b0e e23d 2afb 803c
00000030: 3632 ea3e 7fe4 6a3f c1b9 35bf 114b 2f3f
00000040: c4a5 5abf afbf 49be 168b 47bf ec10 82bf
00000050: 954e 503f 6e7d 4d3f 1946 ae3f 23c9 61bf
00000060: 4148 933f ec0d 943f ee8a c8bc 60ce c83d
00000070: 1320 143f eeb3 35bf fb26 403f 2ebb 0c3f
00000080: a243 3d3f eb89 7abf 4b33 793f 7ee5 2d3f
00000090: e760 01be 7787 0f3f e3aa 87bf 9cbe 6a3f
000000a0: e381 a1bf 1b08 88be fc20 693e c217 123f
000000b0: cba3 033f 6b5d 893f 15a7 833f 61d1 8bbf
000000c0: 071b 2bbf 29ed cbbe bd0b 83bf 274e bb3d
000000d0: 33ba 9a3f fa30 9e3f 743f 803d 9a88 82be
000000e0: 6b03 733f a1b4 053f 51ad 9d3f 8792 9b3f
000000f0: 5e06 15bf 2c0e 553d 8b3d 5a3f 8631 873f
-0.47147128 -0.94184893 -0.26171342 -0.25272956 1.1281058 0.7985584 -0.7826163 0.020587228
0.18534613 -0.8064218 0.11037942 0.015744764 0.45741433 0.9175491 -0.7098656 0.6847392
-0.8540919 -0.19702028 -0.77946603 -1.0161414 0.81369907 0.80269516 1.3615142 -0.88197535
1.1506425 1.1566749 -0.02448031 0.09804988 0.5786144 -0.70977676 0.7505948 0.54973114
0.73931324 -0.97866696 0.9734389 0.679283 -0.12634622 0.5606608 -1.0599025 0.91697097
-1.2617763 -0.26568684 0.22766489 0.570675 0.51421803 1.0731634 1.0285364 -1.0923272
-0.66838115 -0.39829376 -1.0237957 0.09145766 1.2088073 1.2358696 0.06262103 -0.25494844
0.9492709 0.5222874 1.2318517 1.2154092 -0.5821284 0.05201547 0.8525016 1.0561988

l2.bias f4 [8]
00000000: a9bc ea3e 1fe4 bc3e 8042 643d 6f8d d3bd
00000010: e564 283e c0e4 963e 9c4d 223f 1123 7c3e
0.4584706 0.36892793 0.05572748 -0.10329711 0.16444738 0.29471397 0.6339967 0.24622752

l3.weight f4 [6, 8]
00000000: 7408 15bf 6797 56bf 7e71 a23e cf4a ad3e
00000010: 546d bbbf 50ce 013e 7314 f13e 29d3 80be
00000020: ed2a e6be 4eec 8bbf 0d79 bfbf 7f36 8b3f
00000030: 08dd 8abf 3102 aebf 32e2 84bf 0b0f 223f
00000040: 4b5d 6dbe 41d4 51bf e767 b7bf a549 82bf
00000050: a11a a1be 7db9 4e3f 830d 16bf 0a30 1a3f
00000060: cb44 093f 07b0 ee3e d6b9 943f b14c d2bf
00000070: a133 7dbf e121 bf3e 01c5 883e 3452 99bf
00000080: 05e6 4f3f 374e 083f bd77 87bf d49c 97bf
00000090: 46b9 da3e 5406 ddbe 2e8f 0d3f 4fd4 85be
000000a0: 1f8c 04bf fad1 a13e 0b04 1fbf e287 73be
000000b0: 7641 563f 52bf f4bf 450e 1dbf 0ffa d13e
-0.58216023 -0.8382477 0.31727213 0.33846137 -1.4642739 0.12676358 0.47085914 -0.25161102
-0.44954625 -1.093149 -1.4958817 1.0876006 -1.0848703 -1.3594419 -1.0381529 0.63304204
-0.2318012 -0.819645 -1.4328583 -1.0178725 -0.3146563 0.8075178 -0.5861437 0.6022955
0.53620595 0.46618673 1.1619213 -1.6429654 -0.98906904 0.37330535 0.26712802 -1.1978211
0.81210357 0.53244346 -1.0583416 -1.1844735 0.42719477 -0.4316889 0.552966 -0.2613854
-0.5177631 0.31605512 -0.62115544 -0.23782304 0.83693635 -1.9120886 -0.613499 0.41011092

l3.bias f4 [6]
00000000: b1b3 ae3e 3bcb 7b3e e84e 533e 5347 003e
00000010: 656d 683e 0e2d 99be
0.3412147 0.24589245 0.20635569 0.12527208 0.2269798 -0.29917186
